assignment1/tests/sgd/sgd_updated_weights.npy (npy, 62848 bytes, 1 tensors)

array f8 [784, 10]
00000000: bec5 c952 8c8c 603f ed88 158c 064e 4a3f
00000010: 48cf 88c1 3f04 593f 867e 01a2 f249 4e3f
00000020: 2004 8127 be3c 503f 57fb cd87 d3c8 45bf
00000030: 96d6 0cfb dcf3 553f ecb4 d25d 5279 50bf
00000040: 6724 e03a dd98 6abf 4806 6b1c 5072 1b3f
00000050: 9fb5 c62d 7911 58bf f517 0d80 31d8 5ebf
00000060: 22a9 df65 31a4 3dbf a8b2 e64e 7377 153f
00000070: 3d14 94cc f2eb 553f 9ddc ac0d b6fa 5f3f
00000080: fae0 3232 e8e2 40bf bca4 1fb1 663c 5c3f
00000090: c480 0b2c 2b9d 433f fe80 8f12 269b 493f
000000a0: 5823 cbbe e578 60bf 1876 4972 23cb 49bf
000000b0: 8879 4f0f 9f3b 3ebf c184 dfad d4e2 3dbf
000000c0: 6cd1 5ff1 1a69 253f 14a6 74ef 760e 5cbf
000000d0: 625e b925 9770 633f f3fd 80c4 2f89 38bf
000000e0: c865 15c9 2081 113f 0829 694a 5fdd 533f
000000f0: 008b aa69 4134 f73e ad56 2d5e 3c4b 64bf
00000100: b8f0 e942 2925 e5be 7f0c bf49 0e99 41bf
00000110: 1aa8 8372 9189 533f 663e 7b37 c7ad 45bf
00000120: 62a3 c6dd c8b6 52bf 2dce 0c05 6b2d 15bf
00000130: d09a 8f74 c90b 31bf 9ec6 7d8d 726a 2d3f
00000140: 35a8 7e40 50ea 5b3f 7a06 b6da 2c2d 5d3f
00000150: da3c 4bdc dd23 4dbf 1e18 c3e1 192c 4b3f
00000160: 7153 7555 ee6f 403f 80d4 a3f0 8f29 09bf
00000170: a87b 4da5 7843 553f 86ee 95e3 1bc5 503f
00000180: 85e5 2a66 dad6 573f 6212 dfaa cf13 373f
00000190: 55cb 7cf7 b12c 63bf 58f1 2127 47c2 453f
000001a0: 6fe6 0e19 ebde 573f 482f ddfc 59cf 5dbf
000001b0: 140e d3e0 5d99 393f 3874 3e59 cf76 3f3f
000001c0: 7fec c17f 6838 39bf 01f8 0b54 3700 333f
000001d0: 8879 9f23 d3fa 1c3f 5f2a 8ffc b9db 4d3f
000001e0: 6dba 5610 9fd7 503f ce6f 204d d272 5a3f
000001f0: 1612 22b6 6c0f 4dbf 3a79 30b6 a379 60bf
00000200: fe16 896d 390b 52bf cade c42e 5595 64bf
00000210: 4cc7 969a 070e 4dbf fc64 4de9 8c58 583f
00000220: 78fa 4a40 a2a0 16bf 8057 bcfa 36d8 2cbf
00000230: 955f a6d0 079c 31bf 599c ccc0 db65 5abf
00000240: b2a2 00e5 6478 51bf 8030 5274 ade5 063f
00000250: 6071 645a 86ad 30bf 676d 8695 28ff 6a3f
00000260: be36 4e5a eecb 613f 973b 0413 8596 5abf
00000270: 80c2 dbda 1250 f33e 545e 560c 5e6a 673f
00000280: 010e 6819 9d4d 4f3f 1c4f bcdf b220 5dbf
00000290: 49a1 a2cf b059 513f 6ed6 e8f8 f437 5d3f
000002a0: dafd 4edd 4e59 49bf 06f2 0802 50cb 4ebf
000002b0: 0035 ab0a bcda 64bf f16e ede2 513a 5dbf
000002c0: 7351 e129 5340 543f ef58 7c0b 496e 61bf
000002d0: 186c aa2a 6693 573f d235 ddbd 14a5 5cbf
000002e0: ff0c 4095 d9ce 513f 00cd c9ab ca0f eabe
000002f0: 157f 21ae 8c69 433f 74a1 63cd 03da 3dbf
00000300: 88d4 bf17 a2c4 6a3f da4b a7df 4cc9 42bf
00000310: 7d25 5548 39d4 2d3f 14d5 5c75 be90 5f3f
00000320: 20c7 6a43 3e42 183f 50c7 281e ca6b 523f
00000330: 7e61 5946 ff2f 53bf 42d9 7b96 5e51 463f
00000340: 547b 2dd1 3967 4bbf 3812 97f7 77eb 45bf
00000350: e0f0 e3b2 9610 163f 000b c292 829a 01bf
00000360: d936 33b4 464f 523f 427d e4e8 b697 583f
00000370: 087b ee3a 3bbc 023f c661 2058 008d 643f
00000380: ffb7 e4f9 8e04 403f d290 21a5 b128 633f
00000390: acb2 2e25 2d90 62bf f697 d5f2 7608 623f
000003a0: d17a 03d6 c345 6b3f 0a34 bbfa e72e 61bf
000003b0: 13b3 0fec a4b4 46bf 7c30 ab34 1809 4dbf
000003c0: 7a70 42bd 562c 303f 0e59 f179 c416 5a3f
000003d0: c8fd 78df 0370 3ebf 17b5 471e 9b74 57bf
000003e0: 8689 d140 fdc7 5d3f 5e4c 0c89 2a52 4fbf
000003f0: ce80 bf61 55ec 34bf c010 ea2b 2848 29bf
00000400: ab87 e5c2 8076 453f 70ee d0b0 4345 0a3f
00000410: 0ad3 2c54 c606 41bf 823f 241c 2927 3cbf
00000420: a07a af35 9272 273f aa5b 483a 3343 64bf
00000430: 9acb 52a7 601d 3b3f 0d26 901f ffdf 5c3f
00000440: 0085 f64a a445 fabe f04c 1adb f5fb 603f
00000450: 3989 da31 ef2b 463f 8e1d d655 fc33 54bf
00000460: db38 3ba3 7e6a 5ebf b0fa eb88 d1ed 553f
00000470: 7d05 0ed9 59cc 613f 589f 41eb df1d 57bf
00000480: 4650 fe00 bb58 5dbf 6e6c bf5e 236e 43bf
00000490: 1762 eeb7 e044 603f 7a6a ec62 4575 54bf
000004a0: a248 797b 614f 343f 5ee5 b60f 05be 453f
000004b0: 022c 6650 bed8 5d3f 0366 6deb 0103 503f
000004c0: b562 f67a 1a42 40bf 4aa2 19c5 7828 5bbf
000004d0: 3da2 d743 da3d 493f 8a4e e623 0f68 5bbf
000004e0: 1a86 c05d bf2b 633f fae0 9c34 0bad 3d3f
000004f0: a066 61e4 76bf 553f 56de a078 2027 523f
00000500: 69ff 0bf4 d7a8 50bf b031 737e ac8b 593f
00000510: 65e0 41f3 1ce3 423f 8664 a406 b88b 703f
00000520: cca2 d2ef de53 51bf 23ac 82b3 2967 63bf
00000530: 0652 2bfb da22 46bf 766e c2ae fe6f 58bf
00000540: 1647 5c18 131d 533f 307c c3a5 c449 57bf
00000550: 6da8 b1f3 6979 513f 79f6 b6a4 87b0 36bf
00000560: 2ee1 186b 686e 313f aa06 1353 f7d2 543f
00000570: 345c 03c8 9106 473f 00a6 d257 584e 55bf
00000580: 45b5 57dd 8620 443f 00bb 89d4 92d2 d23e
00000590: 2f58 f3e6 1603 513f 4480 6f1c 04d1 5abf
000005a0: b574 4923 38a4 563f bc6e b47f 1a3e 5abf
000005b0: 20a9 ba63 89a0 60bf 1088 b350 10f3 15bf
000005c0: 8f58 e732 1edd 613f b39f e644 36aa 363f
000005d0: eddf 3385 ba54 2a3f 1643 9751 dc1f 5b3f
000005e0: 2a43 5360 0757 653f 2aaa c936 f1e7 683f
000005f0: b69c 1104 d403 4dbf fcf5 fa0f 8095 4c3f
00000600: 80e0 f6e5 a9a4 2dbf 9ef5 7024 a3b1 4ebf
00000610: 5078 c666 b610 613f 9b62 436b a8d6 303f
00000620: f1e2 3f17 67aa 4a3f 410f f6c9 b5c9 60bf
00000630: 9c16 c693 1d14 3d3f 0b06 c92f c8b1 583f
00000640: bc44 1387 02e6 4a3f f03d fcd5 5315 513f
00000650: a0f2 0a39 d687 403f a194 42a9 4abc 63bf
00000660: a11b 238d fb3d 62bf 9022 a99d 298e 3abf
00000670: f652 7d03 66d9 3f3f 7479 4f0f ffe9 303f
00000680: 3e8d 9b3b e17e 643f 4c07 29d3 2a81 15bf
00000690: e1e3 4d2a e930 553f 980c cefc 0c24 2d3f
000006a0: d0e2 0b5e 9a92 e8be 3908 8efd 103b 623f
000006b0: bec6 cc13 7a6c 5c3f b559 ddc2 6328 25bf
000006c0: f444 823a 01d8 6b3f 8251 80d7 7e64 40bf
000006d0: 8ec1 a7f1 0ffd 3d3f 6d03 c7ce 38d1 483f
000006e0: e24b ccaf 7092 4bbf a334 cb65 0bc1 62bf
000006f0: 6d3e 1afe 184b 59bf 0c4a 3163 71a2 43bf
00000700: cccf a672 aee7 3d3f 3d3d 0751 fa4c 633f
00000710: 80da 3041 0c58 4b3f 1b9d 9090 c763 623f
00000720: 59c1 a448 1ad1 5abf dc24 d22f 9c92 5f3f
00000730: caeb 790f c4ed 5b3f 3cfb 84ef a9b5 52bf
00000740: 003c 6ab4 f9a4 bc3e 134e 8cb9 9434 33bf
00000750: dc9c b55b f4b7 523f 9eaf 22d7 f86a 543f
00000760: 30da 3891 1998 223f 8f37 4bab ae8c 653f
00000770: 5543 e4b8 c215 4b3f ca42 bee1 8b16 223f
00000780: 54f8 05aa 1b46 433f de56 336b e13d 2abf
00000790: 8b69 2ce3 86ae 5fbf fe6f 80ec c173 29bf
000007a0: 4a67 fa16 7288 393f dc33 db8a ab76 383f
000007b0: 172c eaa5 7b46 643f 25dc f498 a68d 5fbf
000007c0: f2a1 8ad6 23e6 463f f4be be6c 32f7 223f
000007d0: 881d c7f6 acc8 2fbf e0b0 dba9 8ce7 2dbf
000007e0: afc5 70bc 446a 3a3f 2acd 0c81 30ac 4a3f
000007f0: 63ea 1e19 2e6d 41bf 91cf 0584 dbaa 63bf
0.0020201435748325716 0.0008027584046142157 0.0015268919579626995 0.000924342606605636 0.0009910447097498734 -0.0006648095000939364 0.0013398798002532178 -0.0010054878578487593
-0.003246719446000901 0.0001047002216223665 -0.0014690097224091326 -0.001882599201239452 -0.0004522915459107703 8.188859258124548e-05 0.0013379927716539307 0.0019518640389842086
-0.0005153306741681179 0.0017233851290206345 0.0005985699463870943 0.0007814346218957544 -0.0020107733929290265 -0.0007871554449356303 -0.0004613173799138605 -0.0004560250507648738
0.00016334966556964413 -0.0017124330023058397 0.0023730232331152104 -0.0003743878955937134 6.677401167589421e-05 0.001212447221080883 2.212917625378074e-05 -0.002477281480802804
-1.0082798408854766e-05 -0.0005370445028280018 0.0011924667724607708 -0.0006615851152335761 -0.0011422120652275426 -8.078542419980772e-05 -0.00026010197012597564 0.00022442482326883324
0.0017038139066962836 0.0017807901411689684 -0.0008892854026160372 0.0008292318703062606 0.0005016244639742662 -4.799337883013791e-05 0.0012978246861263618 0.0010235569337443697
0.0014550335696824357 0.00035213298803807834 -0.0023406482613607484 0.0006640288759310149 0.0014569564702767953 -0.0018194559847470471 0.00039061109493962573 0.000480104086131142
-0.0003848319172516448 0.0002899298743129775 0.00011054910365213531 0.0009112032067773549 0.001027970634236343 0.0016142896388435693 -0.0008868485276854489 -0.0020111272329038895
-0.0011013089007447237 -0.00251261365169939 -0.0008866822365034359 0.0014859558188702873 -8.631696989434303e-05 -0.0002200667489595208 -0.0002686995582279414 -0.001611199000032723
-0.0010663018511058273 4.3672901065412197e-05 -0.0002544835100637601 0.003295497194086106 0.0021724372222199076 -0.0016228007844494069 1.8418109610731596e-05 0.00285833710467979
0.0009552971922066057 -0.0017778155151448377 0.001058981577935896 0.0017833607013363578 -0.0007735858040333568 -0.0009397640861333329 -0.0025457070054019093 -0.001783924071523776
0.0012360393661952878 -0.002127783456567937 0.001438951274997496 -0.0017483427577248312 0.0010869145235126718 -1.242718041647448e-05 0.0005924164691002177 -0.00045549958066583925
0.0032675901293211553 -0.0005733132705308911 0.00022757720231884526 0.0019265994973925492 9.25398352176446e-05 0.001124331837342802 -0.0011711113851529949 0.0006810867170930284
-0.0008362800893840596 -0.0006689391877264311 8.417053024695502e-05 -3.357611635214884e-05 0.00111753372839323 0.0015010153034110273 3.573470836858687e-05 0.0025086409305112604
0.0004888246656145067 0.00233874031350654 -0.0022660142653506323 0.002201301881245672 0.0033291649743739456 -0.002097561917116857 -0.00069292118871331 -0.0008860939209056752
0.0002467834249360101 0.0015923422540900542 -0.00046444029382894077 -0.001431609614083234 0.001817700688910935 -0.000955839890681164 -0.0003192623569230447 -0.00019288530707595695
0.0006549957959516203 5.010712457262096e-05 -0.0005196064379107978 -0.00042958024654726073 0.00017889056002125692 -0.0024734497585643016 0.00041373834330754036 0.0017623893202219937
-2.5054968032405152e-05 0.0020732690689527697 0.0006766241019316228 -0.001233097478093945 -0.0018564449973613093 0.0013384386290337495 0.0021726374474730346 -0.0014109312733356551
-0.0017911745271464038 -0.0005929634767157918 0.0019859684975467406 -0.0012486627198941267 0.00030990724505842494 0.00066352126253048 0.0018216951881153691 0.000977279543539545
-0.0004961613939712036 -0.0016575984376691216 0.0007703128573526907 -0.0016727588514172964 0.002340196382662152 0.0004528190953467928 0.0013273869567655208 0.0011079613782508844
-0.0010168179434799313 0.0015591797362502872 0.000576390395976578 0.0040394962800515185 -0.0010575940243972458 -0.0023685278393563865 -0.0006755418056295099 -0.0014915454039855758
0.001166599891295699 -0.0014213962922935523 0.0010665449797451446 -0.0003462153587995075 0.0002659802367790562 0.0012710013655098753 0.0007026874373207205 -0.0013004172063041386
0.0006142290609979858 4.487646329749987e-06 0.0010383342412772047 -0.0016367473742704567 0.001381926366909964 -0.0016017206933786462 -0.002029674853322963 -8.373057442015463e-05
0.002180632574190495 0.00034583878450655385 0.00020088936671647188 0.0016555453824944103 0.002604975134638106 0.0030402861796592533 -0.0008854661210876611 0.0008723140053558671
-0.0002261598010429057 -0.0009367033570765631 0.0020831644562369425 0.0002569352320854008 0.0008137706158769226 -0.0020493078770317534 0.000443703862196146 0.0015072302768576208
0.0008208763448697347 0.0010426825246588854 0.0005044742593650238 -0.0024091203905124013 -0.0022268212424906984 -0.0004052020646310517 0.0004859804207531371 0.00025808789297156816
0.002501907260794716 -8.203338510617586e-05 0.001293399525108756 0.00022232683695841827 -1.17171611590956e-05 0.002225430664510444 0.001734847274928716 -0.00016142099178280208
0.0033988975520250434 -0.0005002612442717577 0.00045758857018454106 0.0007573630696740948 -0.0008414316394883515 -0.0022893164262770146 -0.0015437835758439725 -0.0005991986894378644
0.00045631417256264124 0.0023560418123690628 0.0008344707333723528 0.002244844221894871 -0.0016367680241949538 0.0019270444165917977 0.0017046370175239794 -0.0011419448401992069
1.7073413844136739e-06 -0.0002930510614060643 0.0011424909888207357 0.0012462072450416316 0.0001418620309878312 0.002630559111230952 0.0008265686790612606 0.00013800103704088843
0.0005881915167689302 -0.00020020844167472398 -0.001933700300190996 -0.00019418470606147315 0.00038960252184382495 0.00037328422591259374 0.0024750151636161555 -0.0019258620194031542
0.0006988215437405117 0.0001446961454098988 -0.00024249183060319154 -0.00022815315326541515 0.00040306261184061115 0.0008139836155351178 -0.0005318141067996548 -0.002400807134273771
